assets/models/push-up/pushup_model.tflite (tflite, 43680 bytes, 7 tensors)

sequential/lstm/Read_2/ReadVariableOp f4 [192]
0.01533625 0.04322829 0.00042031016 0.040118277 0.0033141272 -0.025117053 0.03495852 0.02086038
-0.005620151 -0.00019351969 0.05113689 0.004851809 0.030648205 0.038447198 0.0036677907 0.03490839
0.06971034 0.025730986 0.0014568492 0.05782493 -0.017239984 0.0072918735 0.01444739 0.0316761
0.004044044 -0.009841322 0.041748047 -0.020393213 0.017026452 -0.0038593893 0.036579974 0.0190784
0.006650034 -0.02085779 0.004791577 0.04413944 0.025770023 0.026700763 0.060499143 0.051026322
-0.017401027 0.015332647 0.0128956875 0.030647451 0.03142675 0.025495697 0.022731962 0.012123886
1.0171522 1.0382073 1.0045024 1.0476083 1.0081514 0.9890668 1.0309502 1.0247275
0.9901721 0.99669486 1.0499693 1.0028661 1.0292875 1.0398598 1.0110958 1.0504864
1.0758841 1.0292662 1.0084257 1.0658782 0.986908 1.0124726 1.0199225 1.0342191
0.9977283 0.9962301 1.0457209 1.0001359 1.0150613 1.0040666 1.03702 1.0168495
1.0025396 0.9909317 1.0095758 1.0528545 1.034149 1.0257027 1.0645742 1.0506357
0.98354423 1.0273197 1.0157095 1.032629 1.0304289 1.0315093 1.03031 1.0158832
-0.053668234 0.05266347 0.013226943 0.044873416 -0.03284274 -0.03930335 0.01472622 0.03862117
-0.012705967 -0.012120247 0.05613291 0.005491563 0.030567935 -0.0017593495 0.0023440188 -0.021787517
-0.050802484 0.053345468 0.0562195 0.046627354 0.041090358 0.01671434 0.019528324 -0.052395836
0.0070971358 0.00303092 0.041181535 0.022813773 -0.024950145 -0.0073378803 -0.02959412 -0.0316323
0.021169696 -0.004292567 0.04660859 0.0445606 0.016411314 0.01806895 0.04349336 0.05798528
0.02369939 -0.051590398 0.041254777 0.017795194 0.023355441 -0.02244642 -0.033781435 0.03950581
0.035514526 0.04807811 0.029543718 0.064601295 0.013731511 -0.008270649 0.042299055 0.01078802
0.016366607 -0.027373927 0.07125614 0.0390747 0.03741729 0.023757428 0.014206955 0.06683697
0.08112476 0.030218154 0.010852934 0.070254646 -0.013283382 -0.0022293837 0.032111026 0.051433068
-0.011939745 0.024502074 0.05320401 -0.0026524712 0.027929729 0.0065169474 0.035498545 0.023078052
0.014538236 -0.00544005 0.0059487745 0.05907022 0.06460007 0.041535612 0.07710108 0.059786025
-0.01453877 0.055408534 0.036546227 0.041304417 0.0485878 0.026697675 0.041300938 0.029587243
00000000: e544 7b3c 2610 313d 135d dc39 1053 243d
00000010: d431 593b 47c2 cdbc aa30 0f3d 63e3 aa3c
00000020: 3e29 b8bb 8ceb 4ab9 ea74 513d ecfb 9e3b
00000030: f211 fb3c cf7a 1d3d 515f 703b 1afc 0e3d
00000040: 4bc4 8e3d cac9 d23c bff3 be3a d5d9 6c3d
00000050: de3a 8dbc abf0 ee3b bfb4 6c3c ccbe 013d
00000060: e683 843b 7f3d 21bc 0000 2b3d ab0f a7bc
00000070: 0f7b 8b3c cfed 7cbb e2d4 153d 4e4a 9c3c
00000080: 87e8 d93b f5dd aabc a902 9d3b 8fcb 343d
00000090: a81b d33c 8fbb da3c f3cd 773d fa00 513d
000000a0: 998c 8ebc c835 7b3c 6f48 533c 5d10 fb3c
000000b0: 56b9 003d 5adc d03c 6138 ba3c 43a3 463c
000000c0: 0b32 823f fae3 843f 8993 803f 0718 863f
000000d0: 1b0b 813f 7b33 7d3f 2df6 833f 452a 833f
000000e0: eb7b 7d3f 6527 7f3f 6565 863f eb5d 803f
000000f0: b1bf 833f 201a 853f 966b 813f 5776 863f
00000100: 92b6 893f ffbe 833f 1814 813f b26e 883f
00000110: 01a6 7c3f b498 813f d28c 823f 4b61 843f
00000120: 1f6b 7f3f f008 7f3f 2fda 853f 7404 803f
00000130: 87ed 813f 4185 803f 12bd 843f 2028 823f
00000140: 3853 803f b3ad 7d3f c839 813f f0c3 863f
00000150: ff5e 843f 3a4a 833f f843 883f 3b7b 863f
00000160: 8ec9 7b3f 367f 833f c502 823f 302d 843f
00000170: 18e5 833f 7f08 843f 33e1 833f 7608 823f
00000180: 39d3 5bbd a7b5 573d d2b5 583c 30cd 373d
00000190: 1c86 06bd 8dfc 20bd 3e46 713c 3b31 1e3d
000001a0: b02c 50bc 0094 46bc 9feb 653d 92f2 b33b
000001b0: 9b69 fa3c f999 e6ba 1c9e 193b bc7b b2bc
000001c0: 4416 50bd c780 5a3d 6b46 663d 53fc 3e3d
000001d0: 5d4e 283d 83ec 883c ddf9 9f3c 049d 56bd
000001e0: 178f e83b 66a2 463b f8ad 283d f3e3 ba3c
000001f0: 3f64 ccbc 9a72 f0bb 5e6f f2bc df90 01bd
00000200: 126c ad3c a9a8 8cbb a6e8 3e3d 2d85 363d
00000210: 0571 863c 5605 943c 1826 323d f981 6d3d
00000220: 3925 c23c 7450 53bd c5fa 283d 3ac7 913c
00000230: e953 bf3c 8ee1 b7bc 675e 0abd d8d0 213d
00000240: ae77 113d 8ded 443d ab05 f23c af4d 843d
00000250: 22fa 603c 9e81 07bc c641 2d3d 3cc0 303c
00000260: 4313 863c 493f e0bc bdee 913d cb0c 203d
00000270: df42 193d f09e c23c 4ac4 683c d2e1 883d
00000280: bd24 a63d 108c f73c 81d0 313c abe1 8f3d
00000290: 8ba2 59bc da1a 12bb da86 033d 7bab 523d
000002a0: ec9e 43bc 93b8 c83c 73ec 593d 15d5 2dbb
000002b0: e3cc e43c 1e8c d53b ec66 113d 2f0e bd3c
000002c0: c831 6e3c 7242 b2bb f0ed c23b 9df3 713d
000002d0: 0b4d 843d 3f21 2a3d 2ce7 9d3d 31e2 743d
000002e0: 0534 6ebc 0ff4 623d 7fb1 153d d22e 293d
000002f0: 0004 473d 15b5 da3c 2c2b 293d f260 f23c

sequential/dense/BiasAdd/ReadVariableOp f4 [16]
-0.02207126 0.01762073 0.17424928 -0.0016712367 0.019879771 0.020648452 -0.043595586 0.0038327002
0.06602216 -0.0007579652 0.046591565 0.021990927 0.075266905 0.07590317 0.11827109 0.051828593
00000000: c9ce b4bc 5959 903c 676e 323e 660d dbba
00000010: e7da a23c f126 a93c 4991 32bd 0a2e 7b3b
00000020: a036 873d 2fb2 46ba ccd6 3e3d 5126 b43c
00000030: 8925 9a3d 1f73 9b3d 1d38 f23d 384a 543d

sequential/dense/MatMul f4 [16, 48]
0.2441527 -0.06706806 -0.30710843 0.10922018 -0.21448037 0.12618873 -0.28525865 -0.095043644
-0.14533976 -0.12377925 -0.12306848 0.28009832 -0.17194583 -0.13108271 -0.18641968 -0.0039147786
-0.07617036 -0.058103517 0.23569238 0.039934374 0.0757427 -0.10191306 -0.057453237 0.27526268
-0.02618352 -0.23754966 0.09811883 0.3013206 0.11026853 0.2814703 0.23113176 -0.23996143
-0.2419163 -0.011044238 -0.19391045 0.09144991 -0.13309862 0.1443552 -0.24582496 0.03212386
0.23210306 0.020363253 0.09599777 -0.04045725 0.20364673 0.052954383 0.32710814 0.06129716
0.04258576 0.007570256 0.021446593 0.21552226 -0.2580065 0.14245434 0.116670206 -0.18676046
-0.25491637 0.12786719 -0.10360706 -0.060421713 -0.15449126 -0.2501973 0.22705124 0.24640599
-0.11476241 0.21037261 -0.03243342 -0.05325407 0.21356039 -0.2776617 -0.050505932 -0.052467514
0.13409774 0.26402038 -0.24917921 0.043861434 -0.16701148 -0.2245962 0.09225372 0.16804412
-0.20965205 -0.30269212 -0.19029473 -0.19287568 -0.14393237 -0.348628 -0.24662025 -0.25946197
0.21067142 0.15561782 -0.16950826 -0.29485324 -0.28484258 -0.051852006 0.22547106 0.04882486
-0.2263009 0.100521244 0.27106687 -0.12199221 -0.3116427 -0.2075404 0.38014305 0.048803855
-0.060182735 0.13848406 0.2617774 0.013626808 0.27392602 0.1441008 -0.2387646 -0.0863171
-0.1424496 -0.1026304 -0.030944766 0.35571578 0.09541137 -0.07823856 0.23914675 -0.3759006
0.082264654 0.21103458 0.42904317 -0.060694054 0.21369599 -0.1385704 -0.06571544 -0.340534
0.3373572 -0.033122666 0.26820627 -0.04576677 0.22056475 0.28795362 0.34622234 0.09366355
0.016566806 -0.23736699 -0.044845693 -0.056423705 0.20614181 0.10455967 0.11041103 0.12395525
-0.1324072 -0.05969171 0.13581315 -0.12090327 0.07352334 -0.19842228 -0.16525346 0.29491845
0.33357787 0.11220911 0.046870578 0.22784585 -0.19690728 -0.18441139 0.31000915 0.009232161
-0.23428245 -0.12672701 0.11008061 -0.28249335 -0.17674005 -0.1416619 0.106563106 0.15152548
0.24668491 -0.019117644 -0.21175395 0.23521152 -0.33161256 0.14087044 -0.08299088 -0.19760677
0.17094156 0.23905139 -0.23359069 -0.10411103 -0.06926071 0.09177488 -0.22168393 0.124935396
-0.04043232 0.020856654 0.10147795 0.025645677 -0.29019302 0.24014468 0.015112806 -0.17363535
-0.034430567 -0.055786904 0.061953697 -0.1349468 0.2386331 0.026274629 0.1927573 0.12642059
0.20207644 -0.061546635 -0.03797792 0.18224499 0.048324123 -0.12846515 0.04744598 0.31404737
0.10913536 0.16462378 0.0930986 -0.2667419 0.21508765 -0.14246972 -0.28790206 0.1897004
-0.051294662 0.11236311 -0.17754585 0.15157036 -0.095082834 -0.027105814 -0.11695661 -0.13819498
-0.20368847 -0.079212695 0.198344 -0.26094106 -0.14758572 -0.23812254 -0.15326703 -0.1517913
0.23142481 -0.12767239 0.07984281 -0.18856385 -0.057873815 -0.16223969 0.12764278 -0.17361033
0.2616894 0.22070481 0.00714224 0.03035981 -0.0095256865 0.1740208 -0.34346616 0.12270537
0.25513488 0.09338749 0.03007892 -0.1092712 -0.036246084 -0.31791624 0.25063685 -0.030111464
00000000: 2a03 7a3e fb5a 89bd 513d 9dbe d4ae df3d
00000010: bea0 5bbe 9e37 013e 6c0d 92be 3ea6 c2bd
00000020: f2d3 14be fa7f fdbd 540b fcbd 0c69 8f3e
00000030: 9112 30be 8c3a 06be cde4 3ebe 8b47 80bb
00000040: 35ff 9bbd f4fd 6dbd 5859 713e 3a92 233d
00000050: fd1e 9b3d cbb7 d0bd 1654 6bbd 3bef 8c3e
00000060: d27e d6bc 3840 73be 86f2 c83d b246 9a3e
00000070: 78d4 e13d e01c 903e cead 6c3e 73b8 75be
00000080: e8b8 77be e4f2 34bc 7690 46be 174a bb3d
00000090: 014b 08be d9d1 133e 8ab9 7bbe 4f94 033d
000000a0: 6dac 6d3e d6d0 a63c 7b9a c43d 80b6 25bd
000000b0: c588 503e b2e6 583d b87a a73e bb12 7b3d
000000c0: 686e 2e3d e90f f83b c4b0 af3c deb1 5c3e
000000d0: 6e19 84be 8ddf 113e caf0 ee3d 223e 3fbe
000000e0: 6684 82be 9eef 023e f02f d4bd c27c 77bd
000000f0: f532 1ebe dc19 80be 1f80 683e da51 7c3e
00000100: 8e08 ebbd eb6b 573e e8d8 04bd f120 5abd
00000110: 93af 5a3e ad29 8ebe 4fdf 4ebd 2de8 56bd
00000120: eb50 093e ae2d 873e d628 7fbe 0ca8 333d
00000130: 0f05 2bbe 8cfc 65be 85ef bc3d c213 2c3e
00000140: 07af 56be 76fa 9abe 9fdc 42be 3481 45be
00000150: 0263 13be 5f7f b2be 058a 7cbe 33d8 84be
00000160: 40ba 573e 475a 1f3e 9393 2dbe 01f7 96be
00000170: e3d6 91be c562 54bd e3e1 663e 94fc 473d
00000180: 6cbb 67be 15de cd3d 47c9 8a3e 0dd7 f9bd
00000190: a28f 9fbe 7885 54be 1ca2 c23e 8de6 473d
000001a0: 2c82 76bd c4ce 0d3e b007 863e fa42 5f3c
000001b0: 0840 8c3e 298f 133e b57e 74be 05c7 b0bd
000001c0: 4fde 11be e32f d2bd e17f fdbc 6120 b63e
000001d0: 0967 c33d 8a3b a0bd e3e2 743e 0b76 c0be
000001e0: 5f7a a83d 7319 583e 8cab db3e 549a 78bd
000001f0: 1fd3 5a3e 66e5 0dbe d195 86bd 795a aebe
00000200: 15ba ac3e a2ab 07bd 5552 893e f075 3bbd
00000210: badb 613e a86e 933e 0e44 b13e add2 bf3d
00000220: 1cb7 873c 5510 73be 1eb0 37bd 8b1c 67bd
00000230: d716 533e 6123 d63d 2e1f e23d 40dc fd3d
00000240: c195 07be 4b7f 74bd 9a12 0b3e 229c f7bd
00000250: 6893 963d 362f 4bbe 3438 29be 8dff 963e
00000260: b8ca aa3e e4cd e53d 5dfb 3f3d 6c50 693e
00000270: 10a2 49be 57d6 3cbe 85b9 9e3e 7d42 173c
00000280: bde7 6fbe bac4 01be f171 e13d f8a2 90be
00000290: 58fb 34be d10f 11be c23d da3d 7f29 1b3e
000002a0: f89a 7c3e 9b9c 9cbc 07d6 58be 4adb 703e
000002b0: 1fc9 a9be 5740 103e 1ff7 a9bd 6e59 4abe
000002c0: 4e0b 2f3e e3c9 743e 6632 6fbe 2a38 d5bd
000002d0: 8fd8 8dbd 78f4 bb3d 1d01 63be 21de ff3d
000002e0: 5c9c 25bd 93db aa3c acd3 cf3d e216 d23c
000002f0: 2e94 94be 7de8 753e b49b 773c 77cd 31be
00000300: 1107 0dbd cf80 64bd 29c3 7d3d 7e2f 0abe
00000310: 3c5c 743e e43d d73c 2b62 453e 6674 013e
00000320: 20ed 4e3e 5318 7cbd bc8e 1bbd 6e9e 3a3e
00000330: 84ef 453d 5e8c 03be b756 423d d1ca a03e
00000340: 5c82 df3d 2393 283e 7baa be3d 6592 88be
00000350: f03f 5c3e 95e3 11be e667 93be d240 423e
00000360: 5a1a 52bd a11e e63d 94ce 35be 4335 1b3e
00000370: caba c2bd 030d debc f286 efbd fc82 0dbe
00000380: b693 50be 443a a2bd b11a 4b3e 119a 85be
00000390: b620 17be 65d6 73be 08f2 1cbe 2e6f 1bbe
000003a0: a0fa 6c3e 8dbc 02be a184 a33d e216 41be
000003b0: 180d 6dbd 2922 26be cab4 023e e8c6 31be
000003c0: 27fc 853e 7100 623e 7409 ea3b 23b5 f83c
000003d0: a011 1cbc 8232 323e ccda afbe f44c fb3d
000003e0: 0aa1 823e f141 bf3d 1168 f63c 94c9 dfbd
000003f0: c676 14bd ebc5 a2be 7953 803e 51ac f6bc

sequential/dense_1/MatMul f4 [1, 16]
0.3750501 0.20932162 -0.1294195 0.23730984 0.4562091 0.27178845 0.40370047 0.48802635
-0.4367459 0.26118737 -0.3614021 0.3321822 -0.21831189 -0.25478935 -0.14095595 -0.54400927
00000000: 9106 c03e 6858 563e 8c86 04be 5a01 733e
00000010: 3d94 e93e db27 8b3e d4b1 ce3e 97de f93e
00000020: 299d dfbe 5aba 853e b209 b9be c913 aa3e
00000030: 278d 5fbe c073 82be c256 10be 3144 0bbf

sequential/lstm/Read_2/ReadVariableOp1 f4 [192]
0.01533625 0.04322829 0.00042031016 0.040118277 0.0033141272 -0.025117053 0.03495852 0.02086038
-0.005620151 -0.00019351969 0.05113689 0.004851809 0.030648205 0.038447198 0.0036677907 0.03490839
0.06971034 0.025730986 0.0014568492 0.05782493 -0.017239984 0.0072918735 0.01444739 0.0316761
0.004044044 -0.009841322 0.041748047 -0.020393213 0.017026452 -0.0038593893 0.036579974 0.0190784
0.006650034 -0.02085779 0.004791577 0.04413944 0.025770023 0.026700763 0.060499143 0.051026322
-0.017401027 0.015332647 0.0128956875 0.030647451 0.03142675 0.025495697 0.022731962 0.012123886
1.0171522 1.0382073 1.0045024 1.0476083 1.0081514 0.9890668 1.0309502 1.0247275
0.9901721 0.99669486 1.0499693 1.0028661 1.0292875 1.0398598 1.0110958 1.0504864
1.0758841 1.0292662 1.0084257 1.0658782 0.986908 1.0124726 1.0199225 1.0342191
0.9977283 0.9962301 1.0457209 1.0001359 1.0150613 1.0040666 1.03702 1.0168495
1.0025396 0.9909317 1.0095758 1.0528545 1.034149 1.0257027 1.0645742 1.0506357
0.98354423 1.0273197 1.0157095 1.032629 1.0304289 1.0315093 1.03031 1.0158832
-0.053668234 0.05266347 0.013226943 0.044873416 -0.03284274 -0.03930335 0.01472622 0.03862117
-0.012705967 -0.012120247 0.05613291 0.005491563 0.030567935 -0.0017593495 0.0023440188 -0.021787517
-0.050802484 0.053345468 0.0562195 0.046627354 0.041090358 0.01671434 0.019528324 -0.052395836
0.0070971358 0.00303092 0.041181535 0.022813773 -0.024950145 -0.0073378803 -0.02959412 -0.0316323
0.021169696 -0.004292567 0.04660859 0.0445606 0.016411314 0.01806895 0.04349336 0.05798528
0.02369939 -0.051590398 0.041254777 0.017795194 0.023355441 -0.02244642 -0.033781435 0.03950581
0.035514526 0.04807811 0.029543718 0.064601295 0.013731511 -0.008270649 0.042299055 0.01078802
0.016366607 -0.027373927 0.07125614 0.0390747 0.03741729 0.023757428 0.014206955 0.06683697
0.08112476 0.030218154 0.010852934 0.070254646 -0.013283382 -0.0022293837 0.032111026 0.051433068
-0.011939745 0.024502074 0.05320401 -0.0026524712 0.027929729 0.0065169474 0.035498545 0.023078052
0.014538236 -0.00544005 0.0059487745 0.05907022 0.06460007 0.041535612 0.07710108 0.059786025
-0.01453877 0.055408534 0.036546227 0.041304417 0.0485878 0.026697675 0.041300938 0.029587243
00000000: e544 7b3c 2610 313d 135d dc39 1053 243d
00000010: d431 593b 47c2 cdbc aa30 0f3d 63e3 aa3c
00000020: 3e29 b8bb 8ceb 4ab9 ea74 513d ecfb 9e3b
00000030: f211 fb3c cf7a 1d3d 515f 703b 1afc 0e3d
00000040: 4bc4 8e3d cac9 d23c bff3 be3a d5d9 6c3d
00000050: de3a 8dbc abf0 ee3b bfb4 6c3c ccbe 013d
00000060: e683 843b 7f3d 21bc 0000 2b3d ab0f a7bc
00000070: 0f7b 8b3c cfed 7cbb e2d4 153d 4e4a 9c3c
00000080: 87e8 d93b f5dd aabc a902 9d3b 8fcb 343d
00000090: a81b d33c 8fbb da3c f3cd 773d fa00 513d
000000a0: 998c 8ebc c835 7b3c 6f48 533c 5d10 fb3c
000000b0: 56b9 003d 5adc d03c 6138 ba3c 43a3 463c
000000c0: 0b32 823f fae3 843f 8993 803f 0718 863f
000000d0: 1b0b 813f 7b33 7d3f 2df6 833f 452a 833f
000000e0: eb7b 7d3f 6527 7f3f 6565 863f eb5d 803f
000000f0: b1bf 833f 201a 853f 966b 813f 5776 863f
00000100: 92b6 893f ffbe 833f 1814 813f b26e 883f
00000110: 01a6 7c3f b498 813f d28c 823f 4b61 843f
00000120: 1f6b 7f3f f008 7f3f 2fda 853f 7404 803f
00000130: 87ed 813f 4185 803f 12bd 843f 2028 823f
00000140: 3853 803f b3ad 7d3f c839 813f f0c3 863f
00000150: ff5e 843f 3a4a 833f f843 883f 3b7b 863f
00000160: 8ec9 7b3f 367f 833f c502 823f 302d 843f
00000170: 18e5 833f 7f08 843f 33e1 833f 7608 823f
00000180: 39d3 5bbd a7b5 573d d2b5 583c 30cd 373d
00000190: 1c86 06bd 8dfc 20bd 3e46 713c 3b31 1e3d
000001a0: b02c 50bc 0094 46bc 9feb 653d 92f2 b33b
000001b0: 9b69 fa3c f999 e6ba 1c9e 193b bc7b b2bc
000001c0: 4416 50bd c780 5a3d 6b46 663d 53fc 3e3d
000001d0: 5d4e 283d 83ec 883c ddf9 9f3c 049d 56bd
000001e0: 178f e83b 66a2 463b f8ad 283d f3e3 ba3c
000001f0: 3f64 ccbc 9a72 f0bb 5e6f f2bc df90 01bd
00000200: 126c ad3c a9a8 8cbb a6e8 3e3d 2d85 363d
00000210: 0571 863c 5605 943c 1826 323d f981 6d3d
00000220: 3925 c23c 7450 53bd c5fa 283d 3ac7 913c
00000230: e953 bf3c 8ee1 b7bc 675e 0abd d8d0 213d
00000240: ae77 113d 8ded 443d ab05 f23c af4d 843d
00000250: 22fa 603c 9e81 07bc c641 2d3d 3cc0 303c
00000260: 4313 863c 493f e0bc bdee 913d cb0c 203d
00000270: df42 193d f09e c23c 4ac4 683c d2e1 883d
00000280: bd24 a63d 108c f73c 81d0 313c abe1 8f3d
00000290: 8ba2 59bc da1a 12bb da86 033d 7bab 523d
000002a0: ec9e 43bc 93b8 c83c 73ec 593d 15d5 2dbb
000002b0: e3cc e43c 1e8c d53b ec66 113d 2f0e bd3c
000002c0: c831 6e3c 7242 b2bb f0ed c23b 9df3 713d
000002d0: 0b4d 843d 3f21 2a3d 2ce7 9d3d 31e2 743d
000002e0: 0534 6ebc 0ff4 623d 7fb1 153d d22e 293d
000002f0: 0004 473d 15b5 da3c 2c2b 293d f260 f23c

while/MatMul_11 i1 [192, 48] scale=0.0027492738 zero_point=0
-0.054985475 0.02199419 -0.10172313 0.019244917 0.027492737 0.060484022 0.0027492738 -0.008247822
0.10997095 -0.046737656 -0.019244917 -0.20069699 -0.09347531 -0.030242011 -0.032991286 0.024743464
-0.07972894 0.0054985476 -0.052236203 -0.10172313 0.0 0.054985475 0.010997095 0.09347531
0.0054985476 0.052236203 0.14571151 0.027492737 -0.06323329 -0.09072603 -0.060484022 -0.14296223
0.05773475 0.010997095 0.038489833 0.13196515 0.21444336 0.12921587 0.13471441 -0.019244917
-0.016495643 0.052236203 -0.052236203 -0.046737656 0.030242011 0.046737656 0.16220716 0.06598257
0.054985475 0.071481116 -0.052236203 0.038489833 -0.019244917 -0.032991286 0.0027492738 0.019244917
-0.038489833 0.07697967 0.12646659 -0.052236203 0.10722168 0.052236203 0.04398838 -0.12371732
-0.13471441 0.030242011 0.10722168 0.013746369 0.05773475 0.008247822 0.02199419 -0.068731844
0.068731844 -0.09347531 0.016495643 0.016495643 0.054985475 0.0054985476 -0.010997095 0.049486928
-0.016495643 -0.027492737 0.024743464 0.07697967 0.120968044 0.024743464 -0.027492737 0.032991286
0.09347531 -0.0054985476 -0.054985475 0.07972894 -0.13196515 0.09347531 -0.024743464 0.14296223
0.05773475 -0.032991286 -0.060484022 -0.010997095 0.08522749 -0.0054985476 0.035740558 -0.074230395
0.019244917 -0.0054985476 0.18420134 -0.030242011 0.05773475 0.08522749 0.18695062 -0.030242011
0.030242011 0.09622458 -0.20619553 0.038489833 -0.09622458 -0.02199419 0.1154695 0.019244917
0.08522749 0.013746369 0.06323329 -0.038489833 -0.038489833 0.0054985476 -0.074230395 -0.071481116
0.10722168 -0.071481116 0.024743464 -0.08522749 -0.071481116 0.008247822 0.06598257 -0.074230395
-0.0027492738 0.032991286 0.08247821 -0.08797676 -0.071481116 0.0054985476 0.071481116 -0.11272023
0.12371732 -0.027492737 0.02199419 0.13196515 -0.13471441 0.038489833 0.030242011 0.052236203
-0.04398838 0.046737656 0.05773475 0.08522749 0.016495643 0.027492737 -0.035740558 -0.049486928
0.10997095 -0.024743464 0.0054985476 -0.013746369 -0.04398838 0.06598257 -0.068731844 -0.0027492738
-0.052236203 -0.013746369 -0.052236203 -0.04398838 0.046737656 0.030242011 -0.016495643 0.016495643
0.008247822 0.16220716 0.068731844 0.019244917 0.14571151 -0.02199419 -0.0054985476 -0.010997095
0.05773475 -0.068731844 0.02199419 0.10172313 -0.10722168 0.1154695 -0.11821877 0.035740558
-0.1154695 -0.104472406 -0.08797676 0.08522749 -0.08522749 -0.049486928 -0.14296223 0.10722168
-0.027492737 -0.06323329 -0.046737656 -0.104472406 0.032991286 -0.016495643 0.09347531 0.07972894
0.035740558 -0.08522749 0.13746369 -0.038489833 -0.08522749 0.068731844 0.030242011 0.10172313
0.14571151 0.07972894 0.046737656 0.035740558 0.024743464 -0.038489833 -0.016495643 0.0
0.15121005 0.052236203 -0.024743464 -0.07697967 -0.09347531 -0.12921587 -0.06598257 -0.08247821
-0.032991286 0.016495643 -0.13471441 -0.008247822 -0.06598257 -0.02199419 0.016495643 0.068731844
-0.019244917 -0.10172313 0.016495643 0.035740558 0.120968044 -0.22818972 0.030242011 -0.035740558
0.09622458 0.16495642 0.010997095 -0.10722168 -0.04398838 0.010997095 -0.074230395 -0.038489833
00000000: ec08 db07 0a16 01fd 28ef f9b7 def5 f409
00000010: e302 eddb 0014 0422 0213 350a e9df eacc
00000020: 1504 0e30 4e2f 31f9 fa13 edef 0b11 3b18
00000030: 141a ed0e f9f4 0107 f21c 2eed 2713 10d3
00000040: cf0b 2705 1503 08e7 19de 0606 1402 fc12
00000050: faf6 091c 2c09 f60c 22fe ec1d d022 f734
00000060: 15f4 eafc 1ffe 0de5 07fe 43f5 151f 44f5
00000070: 0b23 b50e ddf8 2a07 1f05 17f2 f202 e5e6
00000080: 27e6 09e1 e603 18e5 ff0c 1ee0 e602 1ad7
00000090: 2df6 0830 cf0e 0b13 f011 151f 060a f3ee
000000a0: 28f7 02fb f018 e7ff edfb edf0 110b fa06
000000b0: 033b 1907 35f8 fefc 15e7 0825 d92a d50d
000000c0: d6da e01f e1ee cc27 f6e9 efda 0cfa 221d
000000d0: 0de1 32f2 e119 0b25 351d 110d 09f2 fa00
000000e0: 3713 f7e4 ded1 e8e2 f406 cffd e8f8 0619
000000f0: f9db 060d 2cad 0bf3 233c 04d9 f004 e5f2

while/MatMul i1 [192, 103] scale=0.0014673596 zero_point=0
0.0909763 -0.03668399 0.032281913 -0.03521663 0.07043326 0.130595 0.055759665 0.032281913
0.048422866 -0.10858461 0.08217214 -0.07777006 -0.054292306 -0.060161743 -0.055759665 -0.0044020787
-0.044020787 -0.068965904 -0.093911014 -0.020543035 -0.09244365 -0.010271518 -0.08070478 -0.017608315
-0.010271518 0.09831309 0.048422866 -0.0029347192 0.08510686 -0.088041574 0.019075675 -0.11005197
-0.0029347192 0.0058694384 -0.07190062 0.08217214 -0.13646445 -0.15113804 -0.044020787 -0.013206236
-0.06309646 -0.099780455 -0.114454046 -0.04548815 0.011738877 0.011738877 0.0058694384 -0.08070478
0.06603118 -0.12912765 -0.032281913 -0.07336798 0.024945114 0.007336798 0.06749854 0.051357586
0.12032349 -0.083639495 0.0763027 0.0763027 -0.13939916 0.09831309 -0.104182534 0.130595
-0.104182534 -0.16727899 0.07483534 0.08657422 -0.044020787 -0.08217214 0.14086652 -0.024945114
-0.14086652 -0.016140956 0.10271517 0.089508936 -0.013206236 -0.0014673596 -0.09244365 0.026412472
-0.007336798 0.027879832 -0.06749854 -0.17901787 -0.1232582 -0.130595 -0.11298669 -0.03961871
0.007336798 -0.03815135 0.0909763 -0.057227023 0.019075675 -0.029347192 0.023477754 -0.11592141
0.08070478 -0.052824944 -0.088041574 0.03374927 0.020543035 -0.08510686 -0.0616291 0.07190062
0.051357586 0.022010393 -0.026412472 0.093911014 0.13793181 -0.03374927 0.089508936 -0.0616291
-0.027879832 0.049890228 -0.10271517 0.15554012 -0.07483534 -0.12032349 -0.08217214 -0.0044020787
-0.068965904 -0.06309646 0.019075675 0.093911014 -0.104182534 0.12912765 0.027879832 0.054292306
-0.029347192 -0.007336798 -0.088041574 -0.089508936 0.013206236 -0.026412472 -0.083639495 -0.12619293
-0.064563826 -0.027879832 0.007336798 0.08657422 0.052824944 0.089508936 0.023477754 -0.03374927
0.07043326 0.011738877 -0.029347192 -0.09537838 0.11738877 -0.1232582 -0.13499708 0.07923742
0.06309646 -0.029347192 0.104182534 0.044020787 0.054292306 0.14820331 -0.052824944 0.068965904
-0.03081455 0.04255343 0.07483534 0.13939916 0.029347192 -0.118856125 0.06603118 0.12032349
0.10564989 0.12766029 0.11151933 -0.07923742 -0.12766029 -0.027879832 -0.013206236 -0.09537838
0.12179085 0.06749854 0.09831309 0.010271518 0.013206236 0.03374927 -0.12179085 -0.049890228
-0.064563826 0.029347192 -0.07043326 0.10711725 0.11592141 0.052824944 0.06749854 0.10711725
-0.07043326 0.104182534 0.023477754 0.04255343 -0.04255343 -0.023477754 -0.054292306 0.104182534
0.014673596 -0.016140956 0.12179085 -0.07777006 0.026412472 0.088041574 -0.03815135 0.114454046
-0.048422866 -0.0763027 0.03081455 -0.08510686 0.060161743 0.0616291 -0.130595 0.093911014
0.114454046 -0.04108607 -0.07923742 0.058694385 -0.048422866 0.03081455 -0.10711725 0.014673596
-0.12766029 -0.10124781 0.054292306 -0.07483534 0.06749854 -0.010271518 -0.07777006 0.083639495
-0.06603118 -0.06309646 0.07190062 -0.093911014 -0.0058694384 -0.024945114 0.011738877 0.10271517
0.014673596 -0.064563826 -0.058694385 -0.0014673596 0.10564989 0.03374927 0.11592141 -0.007336798
-0.008804157 -0.10271517 -0.09684573 0.026412472 -0.04108607 -0.10858461 -0.055759665 0.10711725
00000000: 3ee7 16e8 3059 2616 21b6 38cb dbd7 dafd
00000010: e2d1 c0f2 c1f9 c9f4 f943 21fe 3ac4 0db5
00000020: fe04 cf38 a399 e2f7 d5bc b2e1 0808 04c9
00000030: 2da8 eace 1105 2e23 52c7 3434 a143 b959
00000040: b98e 333b e2c8 60ef a0f5 463d f7ff c112
00000050: fb13 d286 aca7 b3e5 05e6 3ed9 0dec 10b1
00000060: 37dc c417 0ec6 d631 230f ee40 5ee9 3dd6
00000070: ed22 ba6a cdae c8fd d1d5 0d40 b958 1325
00000080: ecfb c4c3 09ee c7aa d4ed 053b 243d 10e9
00000090: 3008 ecbf 50ac a436 2bec 471e 2565 dc2f
000000a0: eb1d 335f 14af 2d52 4857 4cca a9ed f7bf
000000b0: 532e 4307 0917 adde d414 d049 4f24 2e49
000000c0: d047 101d e3f0 db47 0af5 53cb 123c e64e
000000d0: dfcc 15c6 292a a740 4ee4 ca28 df15 b70a
000000e0: a9bb 25cd 2ef9 cb39 d3d5 31c0 fcef 0846
000000f0: 0ad4 d8ff 4817 4ffb faba be12 e4b6 da49
